…
h a lower learning rate for the best model."
    ]
   },
   {
@@ -484,7 +585,7 @@
   },
   {
    "cell_type": "code",
-   "execution_count": null,
+   "execution_count": 30,
    "id": "a414ef8b-e863-4485-b6ce-8b4305fe87fd",
    "metadata": {},
    "outputs": [],
@@ -537,10 +638,105 @@
   },
   {
    "cell_type": "code",
-   "execution_count": null,
+   "execution_count": 31,
    "id": "7311eb11-a910-46e6-813c-8e96fcdc2d0b",
    "metadata": {},
-   "outputs": [],
+   "outputs": [
+    {
+     "name": "stdout",
+     "output_type": "stream",
+     "text": [
+      "ResNet18(\n",
+      "  (conv1): Conv2d(3, 64, kernel_size=(3, 3), stride=(1, 1), padding=(1, 1), bias=False)\n",
+      "  (bn1): BatchNorm2d(64, eps=1e-05, momentum=0.1, affine=True, track_running_stats=True)\n",
+      "  (relu): ReLU(inplace=True)\n",
+      "  (layer1): Sequential(\n",
+      "    (0): BasicBlock(\n",
+      "      (conv1): Conv2d(64, 64, kernel_size=(3, 3), stride=(1, 1), padding=(1, 1), bias=False)\n",
+      "      (bn1): BatchNorm2d(64, eps=1e-05, momentum=0.1, affine=True, track_running_stats=True)\n",
+      "      (relu): ReLU(inplace=True)\n",
+      "      (conv2): Conv2d(64, 64, kernel_size=(3, 3), stride=(1, 1), padding=(1, 1), bias=False)\n",
+      "      (bn2): BatchNorm2d(64, eps=1e-05, momentum=0.1, affine=True, track_running_stats=True)\n",
+      "      (shortcut): Sequential()\n",
+      "    )\n",
+      "    (1): BasicBlock(\n",
+      "      (conv1): Conv2d(64, 64, kernel_size=(3, 3), stride=(1, 1), padding=(1, 1), bias=False)\n",
+      "      (bn1): BatchNorm2d(64, eps=1e-05, momentum=0.1, affine=True, track_running_stats=True)\n",
+      "      (relu): ReLU(inplace=True)\n",
+      "      (conv2): Conv2d(64, 64, kernel_size=(3, 3), stride=(1, 1), padding=(1, 1), bias=False)\n",
+      "      (bn2): BatchNorm2d(64, eps=1e-05, momentum=0.1, affine=True, track_running_stats=True)\n",
+      "      (shortcut): Sequential()\n",
+      "    )\n",
+      "  )\n",
+      "  (layer2): Sequential(\n",
+      "    (0): BasicBlock(\n",
+      "      (conv1): Conv2d(64, 128, kernel_size=(3, 3), stride=(2, 2), padding=(1, 1), bias=False)\n",
+      "      (bn1): BatchNorm2d(128, eps=1e-05, momentum=0.1, affine=True, track_running_stats=True)\n",
+      "      (relu): ReLU(inplace=True)\n",
+      "      (conv2): Conv2d(128, 128, kernel_size=(3, 3), stride=(1, 1), padding=(1, 1), bias=False)\n",
+      "      (bn2): BatchNorm2d(128, eps=1e-05, momentum=0.1, affine=True, track_running_stats=True)\n",
+      "      (shortcut): Sequential(\n",
+      "        (0): Conv2d(64, 128, kernel_size=(1, 1), stride=(2, 2), bias=False)\n",
+      "        (1): BatchNorm2d(128, eps=1e-05, momentum=0.1, affine=True, track_running_stats=True)\n",
+      "      )\n",
+      "    )\n",
+      "    (1): BasicBlock(\n",
+      "      (conv1): Conv2d(128, 128, kernel_size=(3, 3), stride=(1, 1), padding=(1, 1), bias=False)\n",
+      "      (bn1): BatchNorm2d(128, eps=1e-05, momentum=0.1, affine=True, track_running_stats=True)\n",
+      "      (relu): ReLU(inplace=True)\n",
+      "      (conv2): Conv2d(128, 128, kernel_size=(3, 3), stride=(1, 1), padding=(1, 1), bias=False)\n",
+      "      (bn2): BatchNorm2d(128, eps=1e-05, momentum=0.1, affine=True, track_running_stats=True)\n",
+      "      (shortcut): Sequential()\n",
+      "    )\n",
+      "  )\n",
+      "  (layer3): Sequential(\n",
+      "    (0): BasicBlock(\n",
+      "      (conv1): Conv2d(128, 256, kernel_size=(3, 3), stride=(2, 2), padding=(1, 1), bias=False)\n",
+      "      (bn1): BatchNorm2d(256, eps=1e-05, momentum=0.1, affine=True, track_running_stats=True)\n",
+      "      (relu): ReLU(inplace=True)\n",
+      "      (conv2): Conv2d(256, 256, kernel_size=(3, 3), stride=(1, 1), padding=(1, 1), bias=False)\n",
+      "      (bn2): BatchNorm2d(256, eps=1e-05, momentum=0.1, affine=True, track_running_stats=True)\n",
+      "      (shortcut): Sequential(\n",
+      "        (0): Conv2d(128, 256, kernel_size=(1, 1), stride=(2, 2), bias=False)\n",
+      "        (1): BatchNorm2d(256, eps=1e-05, momentum=0.1, affine=True, track_running_stats=True)\n",
+      "      )\n",
+      "    )\n",
+      "    (1): BasicBlock(\n",
+      "      (conv1): Conv2d(256, 256, kernel_size=(3, 3), stride=(1, 1), padding=(1, 1), bias=False)\n",
+      "      (bn1): BatchNorm2d(256, eps=1e-05, momentum=0.1, affine=True, track_running_stats=True)\n",
+      "      (relu): ReLU(inplace=True)\n",
+      "      (conv2): Conv2d(256, 256, kernel_size=(3, 3), stride=(1, 1), padding=(1, 1), bias=False)\n",
+      "      (bn2): BatchNorm2d(256, eps=1e-05, momentum=0.1, affine=True, track_running_stats=True)\n",
+      "      (shortcut): Sequential()\n",
+      "    )\n",
+      "  )\n",
+      "  (layer4): Sequential(\n",
+      "    (0): BasicBlock(\n",
+      "      (conv1): Conv2d(256, 512, kernel_size=(3, 3), stride=(2, 2), padding=(1, 1), bias=False)\n",
+      "      (bn1): BatchNorm2d(512, eps=1e-05, momentum=0.1, affine=True, track_running_stats=True)\n",
+      "      (relu): ReLU(inplace=True)\n",
+      "      (conv2): Conv2d(512, 512, kernel_size=(3, 3), stride=(1, 1), padding=(1, 1), bias=False)\n",
+      "      (bn2): BatchNorm2d(512, eps=1e-05, momentum=0.1, affine=True, track_running_stats=True)\n",
+      "      (shortcut): Sequential(\n",
+      "        (0): Conv2d(256, 512, kernel_size=(1, 1), stride=(2, 2), bias=False)\n",
+      "        (1): BatchNorm2d(512, eps=1e-05, momentum=0.1, affine=True, track_running_stats=True)\n",
+      "      )\n",
+      "    )\n",
+      "    (1): BasicBlock(\n",
+      "      (conv1): Conv2d(512, 512, kernel_size=(3, 3), stride=(1, 1), padding=(1, 1), bias=False)\n",
+      "      (bn1): BatchNorm2d(512, eps=1e-05, momentum=0.1, affine=True, track_running_stats=True)\n",
+      "      (relu): ReLU(inplace=True)\n",
+      "      (conv2): Conv2d(512, 512, kernel_size=(3, 3), stride=(1, 1), padding=(1, 1), bias=False)\n",
+      "      (bn2): BatchNorm2d(512, eps=1e-05, momentum=0.1, affine=True, track_running_stats=True)\n",
+      "      (shortcut): Sequential()\n",
+      "    )\n",
+      "  )\n",
+      "  (avgpool): AdaptiveAvgPool2d(output_size=(1, 1))\n",
+      "  (fc): Linear(in_features=512, out_features=6, bias=True)\n",
+      ")\n"
+     ]
+    }
+   ],
    "source": [
     "## Next, we put together these building blocks and create our residual net\n",
     "class ResNet18(nn.Module):\n",
@@ -609,7 +805,7 @@
   },
   {
    "cell_type": "code",
-   "execution_count": null,
+   "execution_count": 32,
    "id": "7cddabe4-9dbc-4a33-bb01-106e94c9dcbb",
    "metadata": {},
…
